…
:"stream","name":"stdout","text":["Model: \"model\"\n","__________________________________________________________________________________________________\n"," Layer (type)                Output Shape                 Param #   Connected to                  \n","==================================================================================================\n"," input_5 (InputLayer)        [(None, 256, 256, 3)]        0         []                            \n","                                                                                                  \n"," conv2d_11 (Conv2D)          (None, 128, 128, 32)         896       ['input_5[0][0]']             \n","                                                                                                  \n"," batch_normalization_12 (Ba  (None, 128, 128, 32)         128       ['conv2d_11[0][0]']           \n"," tchNormalization)                                                                                \n","                                                                                                  \n"," activation_14 (Activation)  (None, 128, 128, 32)         0         ['batch_normalization_12[0][0]\n","                                                                    ']                            \n","                                                                                                  \n"," conv2d_12 (Conv2D)          (None, 128, 128, 32)         1056      ['activation_14[0][0]']       \n","                                                                                                  \n"," batch_normalization_13 (Ba  (None, 128, 128, 32)         128       ['conv2d_12[0][0]']           \n"," tchNormalization)                                                                                \n","                                                                                                  \n"," activation_15 (Activation)  (None, 128, 128, 32)         0         ['batch_normalization_13[0][0]\n","                                                                    ']                            \n","                                                                                                  \n"," depthwise_conv2d_4 (Depthw  (None, 128, 128, 32)         320       ['activation_15[0][0]']       \n"," iseConv2D)                                                                                       \n","                                                                                                  \n"," batch_normalization_14 (Ba  (None, 128, 128, 32)         128       ['depthwise_conv2d_4[0][0]']  \n"," tchNormalization)                                                                                \n","                                                                                                  \n"," activation_16 (Activation)  (None, 128, 128, 32)         0         ['batch_normalization_14[0][0]\n","                                                                    ']                            \n","                                                                                                  \n"," global_average_pooling2d_3  (None, 32)                   0         ['activation_16[0][0]']       \n","  (GlobalAveragePooling2D)                                                                        \n","                                                                                                  \n"," reshape (Reshape)           (None, 1, 1, 32)             0         ['global_average_pooling2d_3[0\n","                                                                    ][0]']                        \n","                                                                                                  \n"," conv2d_13 (Conv2D)          (None, 1, 1, 128)            4224      ['reshape[0][0]']             \n","                                                                                                  \n"," activation_17 (Activation)  (None, 1, 1, 128)            0         ['conv2d_13[0][0]']           \n","                                                                                                  \n"," conv2d_14 (Conv2D)          (None, 1, 1, 32)             4128      ['activation_17[0][0]']       \n","                                                                                                  \n"," tf.math.multiply_4 (TFOpLa  (None, 128, 128, 32)         0         ['activation_16[0][0]',       \n"," mbda)                                                               'conv2d_14[0][0]']           \n","                                                                                                  \n"," conv2d_15 (Conv2D)          (None, 128, 128, 16)         528       ['tf.math.multiply_4[0][0]']  \n","                                                                                                  \n"," batch_normalization_15 (Ba  (None, 128, 128, 16)         64        ['conv2d_15[0][0]']           \n"," tchNormalization)                                                                                \n","                                                                                                  \n"," dropout (Dropout)           (None, 128, 128, 16)         0         ['batch_normalization_15[0][0]\n","                                                                    ']                            \n","                                                                                                  \n"," conv2d_16 (Conv2D)          (None, 128, 128, 96)         1632      ['dropout[0][0]']             \n","                                                                                                  \n"," batch_normalization_16 (Ba  (None, 128, 128, 96)         384       ['conv2d_16[0][0]']           \n"," tchNormalization)                                                                                \n","                                                                                                  \n"," activation_18 (Activation)  (None, 128, 128, 96)         0         ['batch_normalization_16[0][0]\n","                                                                    ']                            \n","                                                                                                  \n"," depthwise_conv2d_5 (Depthw  (None, 64, 64, 96)           960       ['activation_18[0][0]']       \n"," iseConv2D)                                                                                       \n","                                                                                                  \n"," batch_normalization_17 (Ba  (None, 64, 64, 96)           384       ['depthwise_conv2d_5[0][0]']  \n"," tchNormalization)                                                                                \n","                                                                                                  \n"," activation_19 (Activation)  (None, 64, 64, 96)           0         ['batch_normalization_17[0][0]\n","                                                                    ']                            \n","                                                                                                  \n"," global_average_pooling2d_4  (None, 96)                   0         ['activation_19[0][0]']       \n","  (GlobalAveragePooling2D)                                                                        \n","                                                                                                  \n"," reshape_1 (Reshape)         (None, 1, 1, 96)             0         ['global_average_pooling2d_4[0\n","                                                                    ][0]']                        \n","                                                                                                  \n"," conv2d_17 (Conv2D)          (None, 1, 1, 384)            37248     ['reshape_1[0][0]']           \n","                                                                                                  \n"," activation_20 (Activation)  (None, 1, 1, 384)            0         ['conv2d_17[0][0]']           \n","                                                                                                  \n"," conv2d_18 (Conv2D)          (None, 1, 1, 96)             36960     ['activation_20[0][0]']       \n","                                                                                                  \n"," tf.math.multiply_5 (TFOpLa  (None, 64, 64, 96)           0         ['activation_19[0][0]',       \n"," mbda)                                                               'conv2d_18[0][0]']           \n","                                                                                                  \n"," conv2d_19 (Conv2D)          (None, 64, 64, 24)           2328      ['tf.math.multiply_5[0][0]']  \n","                                                                                                  \n"," batch_normalization_18 (Ba  (None, 64, 64, 24)           96        ['conv2d_19[0][0]']           \n"," tchNormalization)                                                                                \n","                                                                                                  \n"," dropout_1 (Dropout)         (None, 64, 64, 24)           0         ['batch_normalization_18[0][0]\n","                                                                    ']                            \n","                                                                                                  \n"," conv2d_20 (Conv2D)          (None, 64, 64, 144)          3600      ['dropout_1[0][0]']           \n","                                                                                                  \n"," batch_normalization_19 (Ba  (None, 64, 64, 144)          576       ['conv2d_20[0][0]']           \n"," tchNormalization)                                                                                \n","                                                                                                  \n"," activation_21 (Activation)  (None, 64, 64, 144)          0         ['batch_normalization_19[0][0]\n","                                                                    ']                            \n","                                                                                                  \n"," depthwise_conv2d_6 (Depthw  (None, 32, 32, 144)          3744      ['activation_21[0][0]']       \n"," iseConv2D)                                                                                       \n","                                                                                                  \n"," batch_normalization_20 (Ba  (None, 32, 32, 144)          576       ['depthwise_conv2d_6[0][0]']  \n"," tchNormalization)                                                                                \n","                                                                                                  \n"," activation_22 (Activation)  (None, 32, 32, 144)          0         ['batch_normalization_20[0][0]\n","                                                                    ']                            \n","                                                                                                  \n"," global_average_pooling2d_5  (None, 144)                  0         ['activation_22[0][0]']       \n","  (GlobalAveragePooling2D)                                                                        \n","                                                                                                  \n"," reshape_2 (Reshape)         (None, 1, 1, 144)            0         ['global_average_pooling2d_5[0\n","                                                                    ][0]']                        \n","                                                                                                  \n"," conv2d_21 (Conv2D)          (None, 1, 1, 576)            83520     ['reshape_2[0][0]']           \n","                                                                                                  \n"," activation_23 (Activation)  (None, 1, 1, 576)            0         ['conv2d_21[0][0]']           \n","                                                                                                  \n"," conv2d_22 (Conv2D)          (None, 1, 1, 144)            83088     ['activation_23[0][0]']       \n","                                                                                                  \n"," tf.math.multiply_6 (TFOpLa  (None, 32, 32, 144)          0         ['activation_22[0][0]',       \n"," mbda)                                                               'conv2d_22[0][0]']           \n","                                                                                                  \n"," conv2d_23 (Conv2D)          (None, 32, 32, 40)           5800      ['tf.math.multiply_6[0][0]']  \n","                                                                                                  \n"," batch_normalization_21 (Ba  (None, 32, 32, 40)           160       ['conv2d_23[0][0]']           \n"," tchNormalization)                                                                                \n","                                                                                                  \n"," dropout_2 (Dropout)         (None, 32, 32, 40)           0         ['batch_normalization_21[0][0]\n","                                                                    ']                            \n","                                                                                                  \n"," conv2d_24 (Conv2D)          (None, 32, 32, 240)          9840      ['dropout_2[0][0]']           \n","                                                                                                  \n"," batch_normalization_22 (Ba  (None, 32, 32, 240)          960       ['conv2d_24[0][0]']           \n"," tchNormalization)                                                                                \n","                                                                                                  \n"," activation_24 (Activation)  (None, 32, 32, 240)          0         ['batch_normalization_22[0][0]\n","                                                                    ']                            \n","                                                                                                  \n"," depthwise_conv2d_7 (Depthw  (None, 16, 16, 240)          2400      ['activation_24[0][0]']       \n"," iseConv2D)                                                                                       \n","                                                                                                  \n"," batch_normalization_23 (Ba  (None, 16, 16, 240)          960       ['depthwise_conv2d_7[0][0]']  \n"," tchNormalization)                                                                                \n","                                                                                                  \n"," activation_25 (Activation)  (None, 16, 16, 240)          0         ['batch_normalization_23[0][0]\n","                                                                    ']                            \n","                                                                                                  \n"," global_average_pooling2d_6  (None, 240)                  0         ['activation_25[0][0]']       \n","  (GlobalAveragePooling2D)                                                                        \n","                                                                                                  \n"," reshape_3 (Reshape)         (None, 1, 1, 240)            0         ['global_average_pooling2d_6[0\n","                                                                    ][0]']                        \n","                                                                                                  \n"," conv2d_25 (Conv2D)          (None, 1, 1, 960)            231360    ['reshape_3[0][0]']           \n","                                                                                                  \n"," activation_26 (Activation)  (None, 1, 1, 960)            0         ['conv2d_25[0][0]']           \n","                                                                                                  \n"," conv2d_26 (Conv2D)          (None, 1, 1, 240)            230640    ['activation_26[0][0]']       \n","                                                                                                  \n"," tf.math.multiply_7 (TFOpLa  (None, 16, 16, 240)          0         ['activation_25[0][0]',       \n"," mbda)                                                               'conv2d_26[0][0]']           \n","                                                                                                  \n"," conv2d_27 (Conv2D)          (None, 16, 16, 80)           19280     ['tf.math.multiply_7[0][0]']  \n","                                                                                                  \n"," batch_normalization_24 (Ba  (None, 16, 16, 80)           320       ['conv2d_27[0][0]']           \n"," tchNormalization)                                                                                \n","                                                                                                  \n"," dropout_3 (Dropout)         (None, 16, 16, 80)           0         ['batch_normalization_24[0][0]\n","                                                                    ']                            \n","                                                                                                  \n"," conv2d_28 (Conv2D)          (None, 16, 16, 480)          38880     ['dropout_3[0][0]']           \n","                                                                                                  \n"," batch_normalization_25 (Ba  (None, 16, 16, 480)          1920      ['conv2d_28[0][0]']           \n"," tchNormalization)                                                                                \n","                                                                                                  \n"," activation_27 (Activation)  (None, 16, 16, 480)          0         ['batch_normalization_25[0][0]\n","                                                                    ']                            \n","                                                                                                  \n"," depthwise_conv2d_8 (Depthw  (None, 16, 16, 480)          12480     ['activation_27[0][0]']       \n"," iseConv2D)                                                                                       \n","                                                                                                  \n"," batch_normalization_26 (Ba  (None, 16, 16, 480)          1920      ['depthwise_conv2d_8[0][0]']  \n"," tchNormalization)                                                                                \n","                                                                                                  \n"," activation_28 (Activation)  (None, 16, 16, 480)          0         ['batch_normalization_26[0][0]\n","                                                                    ']                            \n","                                                                                                  \n"," global_average_pooling2d_7  (None, 480)                  0         ['activation_28[0][0]']       \n","  (GlobalAveragePooling2D)                                                                        \n","                                                                                                  \n"," reshape_4 (Reshape)         (None, 1, 1, 480)            0         ['global_average_pooling2d_7[0\n","                                                                    ][0]']                        \n","                                                                                                  \n"," conv2d_29 (Conv2D)          (None, 1, 1, 1920)           923520    ['reshape_4[0][0]']           \n","                                                                                                  \n"," activation_29 (Activation)  (None, 1, 1, 1920)           0         ['conv2d_29[0][0]']           \n","                                                                                                  \n"," conv2d_30 (Conv2D)          (None, 1, 1, 480)            922080    ['activation_29[0][0]']       \n","                                                                                                  \n"," tf.math.multiply_8 (TFOpLa  (None, 16, 16, 480)          0         ['activation_28[0][0]',       \n"," mbda)                                                               'conv2d_30[0][0]']           \n","                                                                                                  \n"," conv2d_31 (Conv2D)          (None, 16, 16, 112)          53872     ['tf.math.multiply_8[0][0]']  \n","                                                                                                  \n"," batch_normalization_27 (Ba  (None, 16, 16, 112)          448       ['conv2d_31[0][0]']           \n"," tchNormalization)                                                                                \n","                                                                                                  \n"," dropout_4 (Dropout)         (None, 16, 16, 112)          0         ['batch_normalization_27[0][0]\n","                                                                    ']                            \n","                                                                                                  \n"," conv2d_32 (Conv2D)          (None, 16, 16, 672)          75936     ['dropout_4[0][0]']           \n","                                                                                                  \n"," batch_normalization_28 (Ba  (None, 16, 16, 672)          2688      ['conv2d_32[0][0]']           \n"," tchNormalization)                                                                                \n","                                                                                                  \n"," activation_30 (Activation)  (None, 16, 16, 672)          0         ['batch_normalization_28[0][0]\n","                                                                    ']                            \n","                                                                                                  \n"," depthwise_conv2d_9 (Depthw  (None, 8, 8, 672)            17472     ['activation_30[0][0]']       \n"," iseConv2D)                                                                                       \n","                                                                                                  \n"," batch_normalization_29 (Ba  (None, 8, 8, 672)            2688      ['depthwise_conv2d_9[0][0]']  \n"," tchNormalization)                                                                                \n","                                                                                                  \n"," activation_31 (Activation)  (None, 8, 8, 672)            0         ['batch_normalization_29[0][0]\n","                                                                    ']                            \n","                                                                                                  \n"," global_average_pooling2d_8  (None, 672)                  0         ['activation_31[0][0]']       \n","  (GlobalAveragePooling2D)                                                                        \n","                                                                                                  \n"," reshape_5 (Reshape)         (None, 1, 1, 672)            0         ['global_average_pooling2d_8[0\n","                                                                    ][0]']                        \n","                                                                                                  \n"," conv2d_33 (Conv2D)          (None, 1, 1, 2688)           1809024   ['reshape_5[0][0]']           \n","                                                                                                  \n"," activation_32 (Activation)  (None, 1, 1, 2688)           0         ['conv2d_33[0][0]']           \n","                                                                                                  \n"," conv2d_34 (Conv2D)          (None, 1, 1, 672)            1807008   ['activation_32[0][0]']       \n","                                                                                                  \n"," tf.math.multiply_9 (TFOpLa  (None, 8, 8, 672)            0         ['activation_31[0][0]',       \n"," mbda)                                                               'conv2d_34[0][0]']           \n","                                                                                                  \n"," conv2d_35 (Conv2D)          (None, 8, 8, 192)            129216    ['tf.math.multiply_9[0][0]']  \n","                                                                                                  \n"," batch_normalization_30 (Ba  (None, 8, 8, 192)            768       ['conv2d_35[0][0]']           \n"," tchNormalization)                                                                                \n","                                                                                                  \n"," dropout_5 (Dropout)         (None, 8, 8, 192)            0         ['batch_normalization_30[0][0]\n","                                                                    ']                            \n","                                                                                                  \n"," conv2d_36 (Conv2D)          (None, 8, 8, 1152)           222336    ['dropout_5[0][0]']           \n","                                                                                                  \n"," batch_normalization_31 (Ba  (None, 8, 8, 1152)           4608      ['conv2d_36[0][0]']           \n"," tchNormalization)                                                                                \n","                                                                                                  \n"," activation_33 (Activation)  (None, 8, 8, 1152)           0         ['batch_normalization_31[0][0]\n","                                                                    ']                            \n","                                                                                                  \n"," depthwise_conv2d_10 (Depth  (None, 8, 8, 1152)           11520     ['activation_33[0][0]']       \n"," wiseConv2D)                                                                                      \n","                                                                                                  \n"," batch_normalization_32 (Ba  (None, 8, 8, 1152)           4608      ['depthwise_conv2d_10[0][0]'] \n"," tchNormalization)                                                                                \n","                                                                                                  \n"," activation_34 (Activation)  (None, 8, 8, 1152)           0         ['batch_normalization_32[0][0]\n","                                                                    ']                            \n","                                                                                                  \n"," global_average_pooling2d_9  (None, 1152)                 0         ['activation_34[0][0]']       \n","  (GlobalAveragePooling2D)                                                                        \n","                                                                                                  \n"," reshape_6 (Reshape)         (None, 1, 1, 1152)           0         ['global_average_pooling2d_9[0\n","                                                                    ][0]']                        \n","                                                                                                  \n"," conv2d_37 (Conv2D)          (None, 1, 1, 4608)           5313024   ['reshape_6[0][0]']           \n","                                                                                                  \n"," activation_35 (Activation)  (None, 1, 1, 4608)           0         ['conv2d_37[0][0]']           \n","                                                                                                  \n"," conv2d_38 (Conv2D)          (None, 1, 1, 1152)           5309568   ['activation_35[0][0]']       \n","                                                                                                  \n"," tf.math.multiply_10 (TFOpL  (None, 8, 8, 1152)           0         ['activation_34[0][0]',       \n"," ambda)                                                              'conv2d_38[0][0]']           \n","                                                                                                  \n"," conv2d_39 (Conv2D)          (None, 8, 8, 320)            368960    ['tf.math.multiply_10[0][0]'] \n","                                                                                                  \n"," batch_normalization_33 (Ba  (None, 8, 8, 320)            1280      ['conv2d_39[0][0]']           \n"," tchNormalization)                                                                                \n","                                                                                                  \n"," dropout_6 (Dropout)         (None, 8, 8, 320)            0         ['batch_normalization_33[0][0]\n","                                                                    ']                            \n","                                                                                                  \n"," conv2d_40 (Conv2D)          (None, 8, 8, 1280)           410880    ['dropout_6[0][0]']           \n","                                                                                                  \n"," batch_normalization_34 (Ba  (None, 8, 8, 1280)           5120      ['conv2d_40[0][0]']           \n"," tchNormalization)                                                                                \n","                                                                                                  \n"," activation_36 (Activation)  (None, 8, 8, 1280)           0         ['batch_normalization_34[0][0]\n","                                                                    ']                            \n","                                                                                                  \n"," global_average_pooling2d_1  (None, 1280)                 0         ['activation_36[0][0]']       \n"," 0 (GlobalAveragePooling2D)                                                                       \n","                                                                                                  \n"," dense_6 (Dense)             (None, 1)                    1281      ['global_average_pooling2d_10[\n","                                                                    0][0]']                       \n","                                                                                                  \n","==================================================================================================\n","Total params: 18221521 (69.51 MB)\n","Trainable pa
…
